concepttest2.safetensors (safetensors, 524752 bytes, 3 tensors)

W f4 [32, 4096]
0	0x34c11878	3.5966855e-07
1	0xb9cca340	-0.00039031543
2	0xb3eecfd9	-1.1120546e-07
3	0xba93ec9c	-0.0011285725
4	0xbbea3bdd	-0.0071482495
5	0x31f88eb7	7.2339748e-09
6	0x3a6e2fff	0.00090861315
7	0x3798cc0b	1.8214827e-05
8	0xb8bb1ba6	-8.922005e-05
9	0xb55f94c8	-8.329048e-07
10	0xbc0ff499	-0.008786344
11	0xb75de57e	-1.3226059e-05
12	0xb57bc54c	-9.379189e-07
13	0x38276fe7	3.992012e-05
14	0xba055577	-0.00050862826
15	0x388bef0c	6.6725624e-05
16	0xb6fb0424	-7.480865e-06
17	0xb935e117	-0.00017345358
18	0x339d7ac0	7.33321e-08
19	0x3a8ba8d0	0.0010655168
20	0xbb6a55c5	-0.003575669
21	0xb9cb95ab	-0.0003883069
22	0xbb79466f	-0.0038036366
23	0xbd15e5ad	-0.03659599
24	0xba2c470f	-0.0006571868
25	0x355f5bd3	8.3207595e-07
26	0x399a7861	0.00029462858
27	0x3654a6d9	3.168758e-06
28	0xb6bb6d3b	-5.5857504e-06
29	0x39f3254a	0.00046376354
30	0xb4c93274	-3.7475877e-07
31	0xbcf95cac	-0.030439697
32	0x35b7b341	1.3686732e-06
33	0xb631ca7b	-2.6492914e-06
34	0xbdedaa01	-0.11604691
35	0x37841ba9	1.5748506e-05
36	0x34a7e9db	3.1276326e-07
37	0xb93c5f97	-0.00017964687
38	0x33a7f762	7.821542e-08
39	0x35dd8521	1.6504529e-06
40	0xb5243f70	-6.1187075e-07
41	0x393f00ba	0.0001821545
42	0xb85b8660	-5.2338815e-05
43	0x3c8c858c	0.017153524
44	0x3bbb3bd4	0.005713919
45	0x3616cbe7	2.2470429e-06
46	0xb530d081	-6.586852e-07
47	0x3941be83	0.00018476885
48	0x386197d8	5.3785596e-05
49	0xba086932	-0.00052036636
50	0x39bf1c19	0.00036451293
51	0x3d1c9af5	0.038233716
52	0xb41afff3	-1.4435481e-07
53	0x35a8c8d8	1.2575429e-06
54	0x34cc49e9	3.8051738e-07
55	0xb5c3b6fe	-1.458189e-06
56	0xb98aad32	-0.00026450452
57	0xb60a453b	-2.06039e-06
58	0x3b9bbcef	0.0047527472
59	0x3ad4d446	0.0016237579
60	0x3c8357ec	0.016033135
61	0x3b21633b	0.0024625796
62	0x37bba6aa	2.2369746e-05
63	0xbc2f7516	-0.010709068
64	0x347626e9	2.2924691e-07
65	0x357bfb66	9.387062e-07
66	0x36afecdd	5.242981e-06
67	0x32e4993c	2.6612376e-08
68	0xba48aa09	-0.0007654732
69	0x35d0d954	1.5560458e-06
70	0x351c831b	5.830531e-07
71	0x3b1eb1bc	0.0024214825
72	0xb545cbab	-7.3684595e-07
73	0x3806bc5c	3.2123513e-05
74	0x3d01b2d7	0.031664696
75	0x3a0da246	0.0005402904
76	0x398b11dd	0.00026525455
77	0xb96204c2	-0.00021554812
78	0x3c8404cc	0.016115569
79	0xb6177db9	-2.2573934e-06
80	0x353d1e19	7.0451784e-07
81	0xb8f8bef9	-0.00011861133
82	0xb8e02d50	-0.000106895925
83	0xb4a5397e	-3.0775476e-07
84	0xbc4faa29	-0.012674847
85	0xbbcf4da0	-0.0063263923
86	0xb6a0b6e3	-4.7896624e-06
87	0xb9797d8d	-0.00023793262
88	0xb80b36ca	-3.319121e-05
89	0x3b386fca	0.0028142803
90	0xbc918c69	-0.017767148
91	0x38bfda20	9.148219e-05
92	0xb5aadca1	-1.2730198e-06
93	0xb52ae81b	-6.3667693e-07
94	0xbb12dd55	-0.0022409756
95	0x36d1382b	6.235224e-06
96	0x365067d6	3.1054856e-06
97	0x3af13a50	0.0018404219
98	0x3ba2667a	0.004956064
99	0x36ab7bb7	5.1105994e-06
100	0x3af0397b	0.0018327677
101	0xba8513f5	-0.0010153042
102	0x3a6dab74	0.0009066381
103	0x3c1beb82	0.009516599
104	0xbc8fb512	-0.017542396
105	0xbc9278e4	-0.01787991
106	0x37846354	1.578188e-05
107	0xbc850273	-0.01623652
108	0x38aa2c0d	8.114437e-05
109	0x3688e67e	4.0799487e-06
110	0xbceeee04	-0.02916623
111	0xbc6de959	-0.014520966
112	0x37065cc4	8.008621e-06
113	0x39ffb978	0.00048775575
114	0xba589b9f	-0.00082629354
115	0xb6082104	-2.0284797e-06
116	0xba408cd7	-0.00073452055
117	0xb6ea7025	-6.986799e-06
118	0x3520c891	5.989651e-07
119	0x3b4c6ad3	0.0031191602
120	0x3a774449	0.00094324775
121	0xb788f495	-1.6326356e-05
122	0x357d0128	9.4251527e-07
123	0x37957284	1.781551e-05
124	0x3ce20f51	0.027595194
125	0xbac4cfb1	-0.001501551
126	0xbbeb93f0	-0.0071892664
127	0xbb362d20	-0.0027797893
128	0x3bd150d8	0.006387811
129	0x3c358301	0.011078597
130	0x3a6b4a77	0.00089756347
131	0xb4313cd0	-1.6506533e-07
132	0x3695b74b	4.461884e-06
133	0x39ec3b7a	0.0004505774
134	0xbba90dec	-0.0051591303
135	0xbbf84686	-0.0075767664
136	0x3591df5b	1.0868347e-06
137	0x37252406	9.843154e-06
138	0xbe1b1ec6	-0.15148458
139	0xb67cb346	-3.7655277e-06
140	0xb53c2cce	-7.0100657e-07
141	0x39a145d6	0.00030760345
142	0xbcc5ffc5	-0.024169812
143	0x3c9f9767	0.019481374
144	0xb9cb81dc	-0.0003881593
145	0x35a8a114	1.2563855e-06
146	0x3bb4faa1	0.0055230414
147	0x35d7576d	1.6044193e-06
148	0x3be40b64	0.0069593657
149	0x36041da4	1.9686786e-06
150	0xb7ef9b65	-2.8563381e-05
151	0x3d03ae72	0.032148786
152	0x33efe89b	1.11716155e-07
153	0x3a9db3e6	0.0012031763
154	0xb77add89	-1.4952741e-05
155	0x3d8024bd	0.06257007
156	0x35fae138	1.8691999e-06
157	0xb782aa94	-1.557664e-05
158	0xbcb6536a	-0.022256572
159	0x35301e64	6.5609333e-07
160	0x3bf9ff65	0.0076293224
161	0xba9c7bae	-0.0011938715
162	0xbb14d580	-0.0022710264
163	0xbd07db6e	-0.03316825
164	0xb8e484d2	-0.00010896627
165	0x3c38db3c	0.011282738
166	0x32e3237f	2.644242e-08
167	0x34c38247	3.641637e-07
168	0xb7a2df0f	-1.9415775e-05
169	0xbad9c636	-0.0016614858
170	0xb3cdde16	-9.5864536e-08
171	0x3d205414	0.039142683
172	0xbcaa46d7	-0.020785732
173	0x3c89bf56	0.016814869
174	0xb8298d3d	-4.042428e-05
175	0x3b3475dc	0.002753607
176	0x37c367cd	2.3294147e-05
177	0xbb60dc43	-0.0034310974
178	0x3a5539ee	0.00081339374
179	0xba8ed62e	-0.0010897571
180	0xbb009f0a	-0.0019626045
181	0x39a4a372	0.00031402294
182	0xb71fe9a6	-9.531539e-06
183	0x3b5ec706	0.003399314
184	0x3b448f42	0.0029992615
185	0x3a2f981c	0.0006698386
186	0x31ce1143	5.9973515e-09
187	0xb69ef60d	-4.737411e-06
188	0x3cec56c1	0.028849961
189	0x349144ab	2.7058317e-07
190	0x3c33cd51	0.010974244
191	0xbb00441a	-0.0019571842
192	0xba5d3923	-0.0008438995
193	0x3bf899cf	0.007586695
194	0xbb2da8f5	-0.0026498411
195	0x32bc2518	2.1902949e-08
196	0x3b69134b	0.0035564478
197	0xbb8f6c29	-0.0043769074
198	0x359915b2	1.1405702e-06
199	0xb6250b7f	-2.4593608e-06
200	0x37d755eb	2.5670006e-05
201	0x3a24bf0b	0.0006284571
202	0xb71e0505	-9.418703e-06
203	0x35c340c0	1.4547477e-06
204	0x3b8cb831	0.0042944183
205	0xbbb0bd99	-0.0053936956
206	0x35da3413	1.6257421e-06
207	0xbb83d42e	-0.0040230965
208	0xb9035ffd	-0.00012528892
209	0x390de2fc	0.00013531366
210	0xb81c49e3	-3.726211e-05
211	0x3699c6a9	4.5828824e-06
212	0xbbd3a270	-0.006458573
213	0xbceb4a4e	-0.028721955
214	0x399522c7	0.00028445406
215	0xb5e29ecf	-1.6884532e-06
216	0xba9d5f72	-0.0012006594
217	0x3a9808d4	0.0011599311
218	0x383a6a71	4.4444987e-05
219	0x3c227f09	0.009917983
220	0x3a5290d2	0.0008032444
221	0xb5a850e6	-1.254052e-06
222	0xbb5b8717	-0.0033497268
223	0xb6a30693	-4.858544e-06
224	0x3869e873	5.5768014e-05
225	0x3a36a1e2	0.00069668714
226	0xb883af7c	-6.279253e-05
227	0x32cb77c0	2.3686766e-08
228	0xbb005d6a	-0.001958693
229	0xbcc0dbfb	-0.023542395
230	0x349ce024	2.9220348e-07
231	0x3b991312	0.004671463
232	0x3c43a60c	0.011941444
233	0xb8aa564d	-8.1223065e-05
234	0x39e6691b	0.00043947328
235	0xb44513ec	-1.8354302e-07
236	0x3b29bbdc	0.0025899326
237	0x35a11f05	1.2004463e-06
238	0xb5a169b9	-1.2026204e-06
239	0xbaa8975e	-0.0012862494
240	0xbb8ba0ed	-0.004261127
241	0xba5746e3	-0.0008212162
242	0xb53e7aab	-7.095902e-07
243	0x34efd5a7	4.4672672e-07
244	0x3623ec9d	2.442662e-06
245	0x39f97a26	0.0004758399
246	0xb5b1647c	-1.3216772e-06
247	0xb4397db1	-1.7275194e-07
248	0x3a9f6abe	0.0012162549
249	0x37e459af	2.722148e-05
250	0x3a8bab33	0.001065588
251	0xba53e7c4	-0.0008083547
252	0x3ae71b1b	0.001763198
253	0x348adba4	2.5864313e-07
254	0x3cb3e3d3	0.021959221
255	0x3678d638	3.7079571e-06

a f4 [32, 1]
0	0x3f021b7c	0.5082319
1	0x3fdb3868	1.7126589
2	0x40951596	4.658885
3	0x401dba73	2.464505
4	0x4073cf1a	3.8095155
5	0x40c2c48c	6.0864925
6	0x40b4ec9a	5.653882
7	0x4129bd23	10.608676
8	0x41330330	11.188278
9	0x4153e2c5	13.242864
10	0x4136f9c9	11.435983
11	0x414aa00d	12.664075
12	0x415c923b	13.785701
13	0x415b95a0	13.72403
14	0x414c83d1	12.782182
15	0x415cfa42	13.811098
16	0x415dafb1	13.855393
17	0x41698503	14.594974
18	0x41633e9c	14.2027855
19	0x417239e5	15.139134
20	0x4167f831	14.498094
21	0x41719707	15.099372
22	0x41727606	15.153814
23	0x41802750	16.019196
24	0x417360f0	15.211166
25	0x4175357d	15.325559
26	0x41762ab5	15.3854265
27	0x41867a40	16.809692
28	0x416b8bd3	14.721637
29	0x41705498	15.020653
30	0x4154bafb	13.29565
31	0x416287f4	14.158192

b f4 [32]
0	0x3c83183b	0.016002765
1	0x3c477dbc	0.0121759735
2	0x3c900489	0.017580288
3	0x3cdd2098	0.026993081
4	0x3d1006f3	0.035162877
5	0x3d7e1957	0.062035885
6	0x3d519c15	0.051174242
7	0x3ddcc23d	0.107792355
8	0x3db2beb8	0.08727783
9	0x3d74ccc5	0.059765596
10	0x3d5fdeea	0.054655947
11	0x3c048fbd	0.0080909105
12	0xbd928e4e	-0.07156049
13	0xbd9fde7d	-0.07806108
14	0xbdc935bb	-0.098247014
15	0xbe1e8a0b	-0.15482347
16	0xbe0db00b	-0.13836686
17	0xbe508786	-0.20364198
18	0xbe29d7df	-0.16586255
19	0xbe146c31	-0.14494397
20	0xbdfc5e36	-0.12322657
21	0xbddb85e6	-0.107188985
22	0xbdb61320	-0.088903666
23	0xbdbc4f8a	-0.09194858
24	0xbd652ecb	-0.05595283
25	0xbd4eb942	-0.050469644
26	0xbd07df51	-0.033171955
27	0xbcb8f79d	-0.022579009
28	0xbd29a77e	-0.0414195
29	0xbcb25a98	-0.021771714
30	0xbd598b4b	-0.053111356
31	0xbd33955b	-0.04384361
