concept2.safetensors (safetensors, 524752 bytes, 3 tensors)

W f4 [32, 4096]
-1.62683e-06 9.1447466e-05 -9.7365444e-08 8.995905e-05 -0.009448144 -3.1987704e-09 -0.0016301003 -2.5788266e-05
-0.00018342349 1.6952447e-06 0.0058006616 -8.103924e-06 -2.6991046e-07 8.526992e-07 -0.0006273836 -5.698724e-05
2.2749405e-06 -0.041096024 -5.8440435e-07 -0.010189601 -0.008808439 -0.0016508589 -0.0032184916 0.011246945
0.0011219706 5.0583894e-06 5.78838e-05 1.8416195e-06 6.399229e-05 0.018546933 -2.1931565e-07 0.018475626
2.6033308e-06 -1.4143236e-06 0.062396314 -6.3306748e-06 3.5563903e-06 9.447113e-05 -3.662484e-07 -5.2940816e-08
8.8326914e-07 0.000119760945 0.00010076179 0.0077757686 -0.016352493 1.4306028e-06 2.003627e-06 -0.000603037
9.876872e-06 9.4136325e-05 0.00029139261 -0.05131755 -2.2796141e-06 6.34156e-07 -8.35762e-07 -2.2151676e-06
-0.00021093494 2.692863e-07 0.0029593376 -0.0041117542 -0.012955896 0.00052739907 -2.9184783e-05 -0.020321993
1.9874662e-06 -2.3755715e-06 -4.7594904e-06 -6.247859e-08 -0.0007679162 -1.3956303e-06 -2.8774247e-07 -0.0009530351
-2.176427e-06 0.00091121567 -0.02147995 0.00013481785 0.00017925564 -0.0007880533 -0.013221774 -4.344201e-06
1.1287651e-06 1.6813475e-07 -2.1125867e-05 -2.604486e-06 0.008778138 0.0010628169 4.4433395e-06 -0.0024775902
-9.847619e-07 -0.0012421778 -0.004259231 0.0001305636 -2.2889411e-07 -2.5515854e-05 -0.0033845936 9.413867e-06
1.5387815e-06 -0.0007105486 0.0012654207 -1.1381042e-07 -0.001722942 0.0015353542 -0.0003922496 0.016708681
-0.028302563 -0.017920276 -1.5645313e-05 0.027889205 1.5592857e-06 1.2528491e-06 0.031739034 -0.01106508
-5.7993852e-06 -0.00022440476 0.00050094887 -1.9700674e-06 0.0003688339 7.3685833e-06 -1.3952389e-07 -0.0023477343
-0.0006013029 -4.549159e-06 1.7669153e-06 -7.0093643e-06 0.03457391 -0.0055049635 0.0026808658 -0.0010026542
-0.012598099 -0.016738428 -0.0015039587 -1.10882944e-07 2.8873699e-06 0.00069490564 -0.0047164178 0.012998661
-7.798023e-07 -1.8218026e-06 -0.017253816 4.669119e-06 -7.4597386e-07 0.0014543812 -0.01621435 0.010301429
-0.00083652866 -2.910914e-07 -0.0053358823 -7.661711e-07 -0.004640654 -4.7893286e-06 -7.239548e-07 -0.013983154
2.1205533e-07 0.0016446197 2.1454825e-05 -0.038144015 6.5307177e-07 -1.46818e-05 -0.036442146 1.1572953e-06
-0.02262947 -0.0017106708 -0.0029724615 0.06475218 -0.00026451357 0.014172369 -6.209515e-08 -3.71899e-05
1.4368921e-06 0.004249086 -9.533975e-07 -0.010912015 0.043421585 0.009810675 -2.8919061e-05 0.0024952118
-9.649303e-06 0.04226459 9.658672e-05 -0.004807845 0.0003521384 -0.0002483245 9.133648e-07 -0.0033378976
-0.0019765464 0.0015085583 6.197723e-09 -2.1707433e-06 -0.026108181 -7.1439823e-09 -0.017989995 0.00040324862
-0.0008777496 0.0065400577 -0.003045962 2.1576611e-07 -0.001917154 -0.01652145 -8.0477655e-08 -1.4658566e-07
-7.0574465e-06 -0.0021785637 1.1294194e-06 -1.9464997e-06 -0.0006115716 -0.015668 -1.5897538e-06 0.005741896
-0.0019378113 -8.716403e-05 2.935335e-05 1.4603363e-06 0.0005899187 -0.0046261293 -0.028049566 6.94843e-07
0.002572644 -3.2106066e-06 9.730117e-05 0.018849036 0.00032320258 1.6823502e-07 0.0010204695 -6.0654834e-06
5.4318505e-05 -0.00078671967 0.00061326247 1.639638e-07 0.0007470186 0.0044542695 1.3631715e-06 -0.008305772
-0.0053976653 -0.0021576132 0.0008146279 -2.8986673e-07 -0.014646124 5.5159785e-07 -9.929448e-06 -0.0035785034
-0.00044306405 0.0001756029 1.8732421e-06 -3.446868e-07 8.900981e-07 -0.0011930087 1.9959737e-06 -2.0821047e-07
4.0716073e-05 -3.2839862e-06 0.0019109426 0.000985653 -0.0015889952 2.3738036e-09 0.015482149 -2.6160504e-07
00000000: 7459 dab5 7cc7 bf38 3817 d1b3 66a8 bc38
00000010: 63cc 1abc 5dd1 5bb1 17a9 d5ba e153 d8b7
00000020: 5e55 40b9 2a88 e335 7a13 be3b 17f6 07b7
00000030: 36e8 90b4 0be5 6435 0077 24ba 9505 6fb8
00000040: 2eab 1836 4e54 28bd f6df 1cb5 49f2 26bc
00000050: 4551 10bc a261 d8ba 54ed 52bb 1b45 383c
00000060: 160f 933a 3cbb a936 42c8 7238 902d f735
00000070: 9933 8638 bdef 973c 077d 6bb4 325a 973c
00000080: e2b4 2e36 cad3 bdb5 4793 7f3d 156c d4b6
00000090: 52aa 6e36 cd1e c638 cca0 c4b4 0b61 63b3
000000a0: cb19 6d35 2b28 fb38 1350 d338 e0cb fe3b
000000b0: aaf5 85bc 2303 c035 0d76 0636 2115 1eba
000000c0: d8b4 2537 0e6b c538 0ec6 9839 5a32 52bd
000000d0: 79fb 18b6 de3a 2a35 2159 60b5 4aa8 14b6
000000e0: 6b2e 5db9 6d92 9034 72f1 413b e5bb 86bb
000000f0: f744 54bc 2741 0a3a d8d1 f4b7 4f7a a6bc
00000100: 6960 0536 026c 1fb6 b6b3 9fb6 f82b 86b3
00000110: fc4d 49ba 7e51 bbb5 067b 9ab4 1ad5 79ba
00000120: bb0e 12b6 a6de 6e3a b8f6 afbc e45d 0d39
00000130: 92f6 3b39 5d95 4eba 24a0 58bc 67c4 91b6
00000140: 1380 9735 8788 3434 7437 b1b7 bbc8 2eb6
00000150: 2ed2 0f3c 384e 8b3a ff17 9536 115f 22bb
00000160: 292c 84b5 92d0 a2ba 0591 8bbb e6e7 0839
00000170: efc5 75b4 e10a d6b7 0fd0 5dbb 40f0 1d37
00000180: 2188 ce35 1c44 3aba 79dc a53a f167 f4b3
00000190: 57d4 e1ba f03d c93a daa6 cdb9 a5e0 883c
000001a0: c7da e7bc 8bcd 92bc 0e3e 83b7 e777 e43c
000001b0: a648 d135 9127 a835 ca00 023d 4f4a 35bc
000001c0: 5798 c2b6 324e 6bb9 1c52 033a 8035 04b6
000001d0: 0c60 c139 a63f f736 09d0 15b4 72dc 19bb
000001e0: c1a0 1dba faa4 98b6 bf26 ed35 fb31 ebb6
000001f0: 5f9d 0d3d fb62 b4bb 77b1 2f3b 7e6b 83ba
00000200: 4268 4ebc 071f 89bc 7b20 c5ba 8b1e eeb3
00000210: a3c4 4136 542a 363a 2e8c 9abb 56f8 543c
00000220: 9b53 51b5 a984 f4b5 e057 8dbc 6dab 9c36
00000230: ef3e 48b5 efa0 be3a f5d3 84bc 53c7 283c
00000240: 7d4a 5bba 4c47 9cb4 a0d8 aebb e1aa 4db5
00000250: a110 98bb 05b4 a0b6 cc55 42b5 9919 65bc
00000260: 53b1 6334 4890 d73a e3f9 b337 e63c 1cbd
00000270: c04e 2f35 da51 76b7 5c44 15bd 5d54 9b35
00000280: 7061 b9bc 9638 e0ba a1cd 42bb ca9c 843d
00000290: 69ae 8ab9 3933 683c 2b59 85b3 5afc 1bb8
000002a0: 3ddb c035 eb3b 8b3b faec 7fb5 4fc8 32bc
000002b0: d5da 313d f4bc 203c 3697 f2b7 b586 233b
000002c0: 71e3 21b7 a21d 2d3d 9a8e ca38 218b 9dbb
000002d0: 379f b839 8d31 82b9 f32d 7535 a1c0 5abb
000002e0: f288 01bb d1ba c53a bff3 d431 16ad 11b6
000002f0: d3e0 d5bc 2277 f5b1 c15f 93bc 1d6b d339
00000300: c718 66ba fb4d d63b c39e 47bb 56ad 6734
00000310: 0349 fbba fe57 87bc 0fd3 acb3 2965 1db4
00000320: 01cf ecb6 3cc6 0ebb 8e96 9735 9ca0 02b6
00000330: e051 20ba 2d5a 80bc 865f d5b5 8426 bc3b
00000340: 28fe fdba d5cb b6b8 d73b f637 c600 c435
00000350: c6a4 1a3a c996 97bb 34c8 e5bc 3f85 3a35
00000360: ce99 283b cd75 57b6 2b0e cc38 4b69 9a3c
00000370: 8473 a939 17a4 3434 46c1 853a 1b86 cbb6
00000380: 0dd4 6338 dd3b 4eba 59c3 203a 070e 3034
00000390: 92d3 433a 1ff5 913b 37f6 b635 ef14 08bc
000003a0: e6de b0bb be66 0dbb c18c 553a fb9e 9bb4
000003b0: 4cf6 6fbc 8411 1435 a896 26b7 5385 6abb
000003c0: 0d4b e8b9 0b22 3839 1c6c fb35 650d b9b4
000003d0: 13ef 6e35 bb5e 9cba 91f2 0536 7590 5fb4
000003e0: 8dc6 2a38 7462 5cb6 9878 fa3a 0731 813a
000003f0: d545 d0ba 6520 2331 d7a8 7d3c b972 8cb4

a f4 [32, 1]
1.1351073 3.2737348 6.755263 6.083464 8.146406 9.167105 9.78964 10.226945
11.673443 13.149131 11.446183 12.515523 12.403632 13.501952 13.010625 14.495255
14.972742 15.557505 14.966513 17.165531 17.939783 19.593739 19.63378 20.272503
20.68331 20.351622 20.118053 21.116497 18.110151 19.861217 16.69875 17.708906
00000000: 324b 913f df84 5140 1d2b d840 bdab c240
00000010: ae57 0241 76ac 1241 5ea2 1c41 91a1 2341
00000020: 6cc6 3a41 d762 5241 9123 3741 953f 4841
00000030: 4775 4641 ff07 5841 852b 5041 91ec 6741
00000040: 5a90 6f41 8aeb 7841 d676 6f41 0253 8941
00000050: ad84 8f41 fabf 9c41 fb11 9d41 162e a241
00000060: 6b77 a541 1fd0 a241 c6f1 a041 96ee a841
00000070: 97e1 9041 c6e3 9e41 0a97 8541 d7ab 8d41

b f4 [32]
-0.048909813 -0.03529605 -0.051730067 -0.049108487 -0.04367378 -0.04394074 -0.052154776 -0.056425318
-0.07446698 -0.073605105 -0.06271222 -0.075185485 -0.07034294 -0.08332229 -0.08433644 -0.09473707
-0.09266185 -0.08807134 -0.10718073 -0.0995361 -0.0914376 -0.080235615 -0.07477434 -0.05612888
-0.07117745 -0.06903752 -0.057531647 -0.046692733 -0.065400906 -0.059763897 -0.062995665 -0.061842352
00000000: a855 48bd 9792 10bd e8e2 53bd fb25 49bd
00000010: 47e3 32bd 35fb 33bd 3fa0 55bd 3c1e 67bd
00000020: 2582 98bd 46be 96bd 446f 80bd d9fa 99bd
00000030: f60f 90bd e0a4 aabd 95b8 acbd 8205 c2bd
00000040: 7fc5 bdbd bf5e b4bd 9281 dbbd 95d9 cbbd
00000050: a343 bbbd 9252 a4bd 4a23 99bd 65e7 65bd
00000060: 7cc5 91bd 8b63 8dbd 4ea6 6bbd e140 3fbd
00000070: e9f0 85bd fdca 74bd df03 81bd 684e 7dbd
