concepttest.safetensors (safetensors, 524752 bytes, 3 tensors)

W f4 [32, 4096]
000000 e4 2d 82 b5 69 1e 97 38 4b 62 e0 34 6c 59 df 3a
       -9.699111e-07 7.2059054e-05 4.179477e-07 0.00170402
000010 2a e8 6f bc ab 08 1d 33 d0 b1 04 3b 27 b4 06 38
       -0.014642755 3.6562295e-08 0.0020247586 3.211587e-05
000020 5a 7d 9d b9 b7 24 4f 36 81 92 3e 3c 86 32 0c b7
       -0.00030038768 3.0866775e-06 0.011631609 -8.356414e-06
000030 db 60 14 35 3e e4 ce b8 fd 45 1e bb ec 28 b8 b8
       5.527524e-07 -9.865359e-05 -0.0024150603 -8.781426e-05
000040 6f fb 0b b7 3f 8a dc bb 42 bb 79 b4 7f 3a 68 bb
       -8.343587e-06 -0.0067303474 -2.3258056e-07 -0.0035435257
000050 ba d2 4d 3b bb 37 6e bb 64 cb 14 bb 9e 33 1a 3c
       0.003140612 -0.0036349136 -0.0022704238 0.009411721
000060 a3 c2 c2 39 53 5d fa 35 e6 eb 52 ba 48 34 5d b6
       0.0003714758 1.8653612e-06 -0.0008046016 -3.2961998e-06
000070 f8 56 65 b8 51 44 e9 bb 15 2c 07 b4 67 94 5d bb
       -5.467885e-05 -0.0071187397 -1.2588892e-07 -0.0033810379
000080 ea e1 28 b4 09 41 c2 34 a7 2c 4b 3d 97 f3 2c b7
       -1.5728406e-07 3.6182635e-07 0.04960313 -1.0308714e-05
000090 e4 5a f5 35 3c 8f 3d b7 6e da 6c 34 71 e7 78 b5
       1.8280375e-06 -1.1298627e-05 2.2058677e-07 -9.272399e-07
0000a0 60 1f e4 34 5d a2 4b b9 c0 88 d6 b7 fe 03 53 3b
       4.2491138e-07 -0.00019420074 -2.5574467e-05 0.0032198424
0000b0 37 a3 77 3c 3f c6 cd b5 50 a7 4e b6 af 64 78 ba
       0.015114597 -1.5331387e-06 -3.079378e-06 -0.0009475452
0000c0 44 92 95 37 19 cc fd b9 5e 2f 88 39 da c4 bf bc
       1.7830294e-05 -0.00048407985 0.00025975233 -0.023409296
0000d0 38 a0 f5 35 18 d9 59 b5 a1 92 c6 b4 dd 0e 70 b6
       1.8300552e-06 -8.115471e-07 -3.698706e-07 -3.5771438e-06
0000e0 f8 53 6e b9 66 04 c2 b8 e5 da f5 ba 4c ab 6e bb
       -0.0002272873 -9.25146e-05 -0.0018757252 -0.003641802
0000f0 f1 4d 86 bb dd 3c 57 bb eb 48 77 b8 e3 15 2f ba
       -0.004098647 -0.0032842674 -5.89573e-05 -0.00066789816
000100 8e 60 aa 34 75 a2 2b b6 e6 44 07 b7 4b ac 3a b2
       3.173522e-07 -2.5575548e-06 -8.062669e-06 -1.08658e-08
000110 be 24 b1 3b 9c 51 0f b6 a6 7b 8c 34 ca fa 79 bb
       0.0054059913 -2.1356163e-06 2.6166998e-07 -0.0038143867
000120 dc e5 7a 36 a4 21 c3 ba cd 79 de bc 74 35 12 ba
       3.7386699e-06 -0.0014887345 -0.027157689 -0.0005577423
000130 d7 21 55 39 87 8c 11 ba 94 df 04 3b 70 4e f0 b6
       0.00020325869 -0.0005552251 0.0020274865 -7.1616887e-06
000140 3f fb c6 35 12 e5 d9 38 2f f3 a9 b9 7e 64 ea 35
       1.4825272e-06 0.00010390034 -0.00032415378 1.7463606e-06
000150 ca 7c fe 3b 8b 91 92 3a 6f 93 44 37 72 89 8e bb
       0.007766341 0.0011182291 1.1716837e-05 -0.004349881
000160 c3 ad d5 37 e0 34 8a ba 52 12 70 bc 54 5d bc 38
       2.5472493e-05 -0.0010544322 -0.014652805 8.981922e-05
000170 51 5b 88 36 8a 97 2b 38 98 57 30 bb a4 17 0d b7
       4.0637465e-06 4.091071e-05 -0.0026907679 -8.409759e-06
000180 c4 01 19 b6 bd 88 d3 ba fb 21 9b ba 9b 41 49 b5
       -2.2799804e-06 -0.0016138774 -0.0011835688 -7.4973804e-07
000190 d9 5f 16 bb 39 ab f1 3a 6d a2 87 38 8b 44 d6 3b
       -0.0022945313 0.0018437869 6.467556e-05 0.0065389327
0001a0 1f 9a 1b bd 84 03 03 3c 5d 60 df 37 01 e8 8c 3b
       -0.03798878 0.007996444 2.6628544e-05 0.004300118
0001b0 68 82 07 b8 9e e1 d8 35 e6 26 6c bb 88 c8 d1 3a
       -3.230796e-05 1.6158917e-06 -0.0036033927 0.0016005198
0001c0 51 34 81 b3 8b 4a 3d 3a 2a 42 0f bb 69 fa 4d 36
       -6.016547e-08 0.00072208856 -0.0021859505 3.0693138e-06
0001d0 67 e1 49 bb f3 1c 08 38 72 df 07 35 1f 32 0f bb
       -0.0030804516 3.2451888e-05 5.0616575e-07 -0.0021849943
0001e0 7d 90 ae 38 80 16 27 37 db 58 5c b5 eb 55 da 35
       8.3238796e-05 9.959214e-06 -8.208569e-07 1.6267271e-06
0001f0 33 aa 82 b9 1e 76 f0 b9 2c 96 ca bb 54 cc 78 3b
       -0.0002492234 -0.0004586437 -0.0061824527 0.0037963586
000200 ab 21 01 bc 16 55 2d bb 58 11 dd ba d3 6a 0b 35
       -0.007881562 -0.002644842 -0.0016866131 5.1936985e-07
000210 af 9b a7 36 75 cc 8b bb a3 40 bc 3b ed 3b 03 b8
       4.995112e-06 -0.0042663165 0.00574501 -3.1288644e-05
000220 9b 6f e9 b5 fc 7b 77 37 d2 7a 18 3d 4a 30 d0 b5
       -1.7392334e-06 1.4751215e-05 0.037226506 -1.5511262e-06
000230 93 6e d9 b3 39 08 b6 ba b1 22 01 3d 3c 32 56 3c
       -1.0124963e-07 -0.0013887949 0.031527225 0.0130735
000240 50 36 53 b7 16 79 bc b4 1f cc 40 b8 d3 58 32 35
       -1.2589226e-05 -3.510583e-07 -4.596647e-05 6.6439424e-07
000250 0e 27 4a 3c 16 0b 11 b6 d0 7c 7d b3 3c 64 0e bc
       0.012338413 -2.1613137e-06 -5.901967e-08 -0.00869089
000260 b5 9e 3c b4 f0 1a 0c ba 42 82 a5 37 6b 3b ad bd
       -1.7566602e-07 -0.000534459 1.9730189e-05 -0.08458599
000270 98 c8 1b 36 5c fb 08 35 5f 5c c6 39 66 ce b9 34
       2.321356e-06 5.1029724e-07 0.00037834325 3.460911e-07
000280 10 96 ad 3c 98 9e 98 39 9e 22 57 bb 9e 5d b1 3c
       0.02118972 0.0002910986 -0.003282703 0.021651085
000290 72 fe 53 3a 47 95 cc bc c9 ec e5 b3 19 d1 ee 38
       0.00080869265 -0.024973525 -1.07067144e-07 0.00011387672
0002a0 3f d7 48 37 ee 3e b2 3a 41 d7 a7 34 8e 04 05 bc
       1.1971045e-05 0.0013599077 3.1262792e-07 -0.008118762
0002b0 db ed 90 bc 8e 5e a7 3b c3 c1 1d 38 e9 b7 1c 3c
       -0.017691543 0.0051077073 3.761217e-05 0.009565332
0002c0 81 2b 58 36 20 07 84 bb 1d 7d 93 3a 4a 27 99 3a
       3.221183e-06 -0.0040291697 0.0011252497 0.0011684683
0002d0 4f 91 80 ba a2 0a aa b9 e2 12 b9 b7 7d cf 39 bb
       -0.000980893 -0.0003243285 -2.2062512e-05 -0.0028352432
0002e0 43 fb 73 3b a7 a0 e8 3a be 3a 4c 30 02 a4 31 35
       0.003722862 0.0017748073 7.4298245e-10 6.61763e-07
0002f0 4f eb b2 bd ee 44 05 b5 5e 40 59 3a 0e 5b 59 3a
       -0.08736288 -4.9646667e-07 0.00082874845 0.0008291461
000300 b7 02 05 3c a4 7a 24 bb cf d9 0d ba 9c 61 a1 b4
       0.008118323 -0.0025097514 -0.0005411179 -3.0059607e-07
000310 55 96 4c bb 02 7a d1 ba 90 2b 42 b5 03 4b 02 b6
       -0.0031217535 -0.0015981796 -7.2334024e-07 -1.9415172e-06
000320 b4 e1 a8 36 a3 4a 58 3a 95 b2 08 37 86 04 6e 35
       5.0330655e-06 0.0008250868 8.147811e-06 8.866849e-07
000330 9a fd d5 3a 13 1e e3 bc a6 9e 3a 35 fd 48 6e b9
       0.001632619 -0.027724301 6.9521263e-07 -0.00022724639
000340 81 70 d5 38 ca 7b 0e b9 e4 f9 08 b9 2c 92 1e 37
       0.00010177587 -0.0001358829 -0.00013063062 9.451567e-06
000350 92 2d 4e bb 8d 44 94 3c 4a e7 dc 3c ac db a7 34
       -0.0031460267 0.018099094 0.026965756 3.1266006e-07
000360 30 9a 1a b9 34 13 dc 3a 32 3c 0e b7 1e 6e fe 3b
       -0.00014744024 0.0016790391 -8.477875e-06 0.007764592
000370 c0 e9 61 bb 1c 97 ab 35 18 0c 74 b9 61 51 a4 36
       -0.0034471601 1.2784471e-06 -0.00023274159 4.8970546e-06
000380 23 1a 24 b8 de 6a bf ba 6e 31 cf 39 0a fa 07 35
       -3.912499e-05 -0.0014603992 0.00039518945 5.0655274e-07
000390 94 c8 80 39 51 5e 5d bd 05 8d e1 b4 db 8d ee 3c
       0.00024563505 -0.054045025 -4.201212e-07 0.029120376
0003a0 f6 8c 9d 3c b8 05 1c 3b a7 88 8b bb 7e ea 38 b5
       0.019232254 0.002380712 -0.0042582336 -6.888657e-07
0003b0 34 6f 8a 3c dc 5c 10 b6 02 e0 8a b8 51 e5 86 ba
       0.016898729 -2.1511723e-06 -6.6220775e-05 -0.001029173
0003c0 68 14 bd 3b dd e7 08 3a 4c db 2a 35 65 e5 d0 b4
       0.005770255 0.00052225386 6.3649054e-07 -3.8909926e-07
0003d0 1c ff 4f b4 db 9a bb b9 70 82 e5 b5 14 b6 86 34
       -1.9371186e-07 -0.00035782796 -1.7099792e-06 2.5091924e-07
0003e0 5f 7f 54 3a b9 3a 17 b7 f4 70 ce ba b5 dc e8 b9
       0.0008106138 -9.013974e-06 -0.0015750215 -0.00044414928
0003f0 02 aa 8b 3b 93 f8 48 34 6e 31 d6 bc 4c fc a7 34
       0.00426221 1.8716882e-07 -0.026146617 3.1289744e-07

a f4 [32, 1]
000000 e0 41 87 3f 26 de 0b 40 a7 84 a3 40 f0 6e 7b 40
       1.0566978 2.1854339 5.109943 3.928646
000010 ad c0 d3 40 e0 f0 ca 40 7d 9f bf 40 c6 b7 d5 40
       6.61727 6.3419037 5.988219 6.6786833
000020 b2 8c d9 40 e3 33 f3 40 dd ab e5 40 cf c3 00 41
       6.7984247 7.600084 7.1772294 8.047805
000030 ad 3a 0c 41 dc 55 11 41 15 ee 13 41 e5 28 30 41
       8.764325 9.083462 9.2456255 11.009984
000040 92 6a 37 41 96 49 3e 41 29 41 31 41 f9 f5 3a 41
       11.463518 11.892965 11.078408 11.685052
000050 d5 00 41 41 02 ec 42 41 f0 7b 45 41 d4 8c 3f 41
       12.062703 12.182619 12.342758 11.971882
000060 6c d1 47 41 8d cc 44 41 8e 21 3f 41 b3 ee 46 41
       12.488628 12.299939 11.945692 12.433276
000070 9a 18 3c 41 09 0f 41 41 b0 e3 33 41 59 c9 32 41
       11.756006 12.066171 11.243088 11.174157

b f4 [32]
000000 85 ff 16 bb e2 70 1c 3d a6 9c 9f 3d a0 0b 06 3d
       -0.0023040485 0.03819359 0.0779355 0.03272593
000010 32 c5 b8 3d 66 52 bc 3d 73 5b 9b 3d 48 62 ce 3d
       0.09021987 0.09195404 0.07585802 0.100773394
000020 ab 4d d7 3d b0 60 04 3e 83 99 fa 3d da 36 15 3e
       0.10512861 0.12927508 0.12236311 0.14571705
000030 ef 69 10 3e 91 ef 19 3e a5 91 e5 3d 94 fa ce 3d
       0.1410291 0.15032794 0.1120942 0.10106388
000040 07 77 b0 3d 1f 11 a4 3d a8 e2 b9 3d c4 48 f8 3d
       0.08616453 0.08011078 0.090764344 0.12123254
000050 09 17 1f 3e c5 d5 21 3e 99 03 25 3e 95 66 5a 3e
       0.15536131 0.15804203 0.16114654 0.21328194
000060 fa be 77 3e 43 cc 81 3e 84 83 77 3e 8f 51 8c 3e
       0.24193946 0.25351152 0.24171263 0.27405974
000070 38 7d 63 3e 45 23 85 3e f7 12 6b 3e bc 34 82 3e
       0.22215736 0.2600347 0.22956453 0.25430858
